KitModel(
  (conv2d_0): Conv2d(3, 32, kernel_size=(3, 3), stride=(1, 1), bias=False)
  (conv2d_0_bn): BatchNorm2d(32, eps=0.0010000000474974513, momentum=0.0, affine=True, track_running_stats=True)
  (conv2d_1): Conv2d(32, 64, kernel_size=(3, 3), stride=(1, 1), bias=False)
  (conv2d_1_bn): BatchNorm2d(64, eps=0.0010000000474974513, momentum=0.0, affine=True, track_running_stats=True)
  (conv2d_2): Conv2d(64, 64, kernel_size=(3, 3), stride=(1, 1), bias=False)
  (conv2d_2_bn): BatchNorm2d(64, eps=0.0010000000474974513, momentum=0.0, affine=True, track_running_stats=True)
  (conv2d_3): Conv2d(64, 64, kernel_size=(3, 3), stride=(1, 1), bias=False)
  (conv2d_3_bn): BatchNorm2d(64, eps=0.0010000000474974513, momentum=0.0, affine=True, track_running_stats=True)
  (cls_0_insert_conv2d): Conv2d(64, 64, kernel_size=(3, 3), stride=(1, 1), bias=False)
  (loc_0_insert_conv2d): Conv2d(64, 64, kernel_size=(3, 3), stride=(1, 1), bias=False)
  (conv2d_4): Conv2d(64, 128, kernel_size=(3, 3), stride=(1, 1), bias=False)
  (cls_0_insert_conv2d_bn): BatchNorm2d(64, eps=0.0010000000474974513, momentum=0.0, affine=True, track_running_stats=True)
  (loc_0_insert_conv2d_bn): BatchNorm2d(64, eps=0.0010000000474974513, momentum=0.0, affine=True, track_running_stats=True)
  (conv2d_4_bn): BatchNorm2d(128, eps=0.0010000000474974513, momentum=0.0, affine=True, track_running_stats=True)
  (cls_0_conv): Conv2d(64, 8, kernel_size=(3, 3), stride=(1, 1))
  (loc_0_conv): Conv2d(64, 16, kernel_size=(3, 3), stride=(1, 1))
  (cls_1_insert_conv2d): Conv2d(128, 64, kernel_size=(3, 3), stride=(1, 1), bias=False)
  (loc_1_insert_conv2d): Conv2d(128, 64, kernel_size=(3, 3), stride=(1, 1), bias=False)
  (conv2d_5): Conv2d(128, 128, kernel_size=(3, 3), stride=(1, 1), bias=False)
  (cls_1_insert_conv2d_bn): BatchNorm2d(64, eps=0.0010000000474974513, momentum=0.0, affine=True, track_running_stats=True)
  (loc_1_insert_conv2d_bn): BatchNorm2d(64, eps=0.0010000000474974513, momentum=0.0, affine=True, track_running_stats=True)
  (conv2d_5_bn): BatchNorm2d(128, eps=0.0010000000474974513, momentum=0.0, affine=True, track_running_stats=True)
  (cls_1_conv): Conv2d(64, 8, kernel_size=(3, 3), stride=(1, 1))
  (loc_1_conv): Conv2d(64, 16, kernel_size=(3, 3), stride=(1, 1))
  (cls_2_insert_conv2d): Conv2d(128, 64, kernel_size=(3, 3), stride=(1, 1), bias=False)
  (loc_2_insert_conv2d): Conv2d(128, 64, kernel_size=(3, 3), stride=(1, 1), bias=False)
  (conv2d_6): Conv2d(128, 64, kernel_size=(3, 3), stride=(1, 1), bias=False)
  (cls_2_insert_conv2d_bn): BatchNorm2d(64, eps=0.0010000000474974513, momentum=0.0, affine=True, track_running_stats=True)
  (loc_2_insert_conv2d_bn): BatchNorm2d(64, eps=0.0010000000474974513, momentum=0.0, affine=True, track_running_stats=True)
  (conv2d_6_bn): BatchNorm2d(64, eps=0.0010000000474974513, momentum=0.0, affine=True, track_running_stats=True)
  (cls_2_conv): Conv2d(64, 8, kernel_size=(3, 3), stride=(1, 1))
  (loc_2_conv): Conv2d(64, 16, kernel_size=(3, 3), stride=(1, 1))
  (conv2d_7): Conv2d(64, 64, kernel_size=(3, 3), stride=(1, 1), bias=False)
  (cls_3_insert_conv2d): Conv2d(64, 64, kernel_size=(3, 3), stride=(1, 1), bias=False)
  (loc_3_insert_conv2d): Conv2d(64, 64, kernel_size=(3, 3), stride=(1, 1), bias=False)
  (conv2d_7_bn): BatchNorm2d(64, eps=0.0010000000474974513, momentum=0.0, affine=True, track_running_stats=True)
  (cls_3_insert_conv2d_bn): BatchNorm2d(64, eps=0.0010000000474974513, momentum=0.0, affine=True, track_running_stats=True)
  (loc_3_insert_conv2d_bn): BatchNorm2d(64, eps=0.0010000000474974513, momentum=0.0, affine=True, track_running_stats=True)
  (cls_4_insert_conv2d): Conv2d(64, 64, kernel_size=(3, 3), stride=(1, 1), bias=False)
  (loc_4_insert_conv2d): Conv2d(64, 64, kernel_size=(3, 3), stride=(1, 1), bias=False)
  (cls_3_conv): Conv2d(64, 8, kernel_size=(3, 3), stride=(1, 1))
  (loc_3_conv): Conv2d(64, 16, kernel_size=(3, 3), stride=(1, 1))
  (cls_4_insert_conv2d_bn): BatchNorm2d(64, eps=0.0010000000474974513, momentum=0.0, affine=True, track_running_stats=True)
  (loc_4_insert_conv2d_bn): BatchNorm2d(64, eps=0.0010000000474974513, momentum=0.0, affine=True, track_running_stats=True)
  (cls_4_conv): Conv2d(64, 8, kernel_size=(3, 3), stride=(1, 1))
  (loc_4_conv): Conv2d(64, 16, kernel_size=(3, 3), stride=(1, 1))
)
Inferencing Server started... 
Batch id received /home/dreamlab/Videos/1frame/test-001.mp4
1
Process 0 inf time: 0.05241823196411133
Process 0 time taken: 0.05605030059814453
Process 0 overhead 0.003632068634033203
Batch id received /home/dreamlab/Videos/1frame/test-008.mp4
1
Process 0 inf time: 0.004500627517700195
Process 0 time taken: 0.006933927536010742
…
